model.pt (torch, 109748 bytes, 6 tensors)

convs.convs.0.bias f4 [64]
000000 00 00 00 00 00 00 00 00 00 00 00 00 00 00 00 00
       0.0 0.0 0.0 0.0
000010 00 00 00 00 00 00 00 00 00 00 00 00 00 00 00 00
       0.0 0.0 0.0 0.0
000020 00 00 00 00 00 00 00 00 00 00 00 00 00 00 00 00
       0.0 0.0 0.0 0.0
000030 00 00 00 00 00 00 00 00 00 00 00 00 00 00 00 00
       0.0 0.0 0.0 0.0
000040 00 00 00 00 00 00 00 00 00 00 00 00 00 00 00 00
       0.0 0.0 0.0 0.0
000050 00 00 00 00 00 00 00 00 00 00 00 00 00 00 00 00
       0.0 0.0 0.0 0.0
000060 00 00 00 00 00 00 00 00 00 00 00 00 00 00 00 00
       0.0 0.0 0.0 0.0
000070 00 00 00 00 00 00 00 00 00 00 00 00 00 00 00 00
       0.0 0.0 0.0 0.0
000080 00 00 00 00 00 00 00 00 00 00 00 00 00 00 00 00
       0.0 0.0 0.0 0.0
000090 00 00 00 00 00 00 00 00 00 00 00 00 00 00 00 00
       0.0 0.0 0.0 0.0
0000a0 00 00 00 00 00 00 00 00 00 00 00 00 00 00 00 00
       0.0 0.0 0.0 0.0
0000b0 00 00 00 00 00 00 00 00 00 00 00 00 00 00 00 00
       0.0 0.0 0.0 0.0
0000c0 00 00 00 00 00 00 00 00 00 00 00 00 00 00 00 00
       0.0 0.0 0.0 0.0
0000d0 00 00 00 00 00 00 00 00 00 00 00 00 00 00 00 00
       0.0 0.0 0.0 0.0
0000e0 00 00 00 00 00 00 00 00 00 00 00 00 00 00 00 00
       0.0 0.0 0.0 0.0
0000f0 00 00 00 00 00 00 00 00 00 00 00 00 00 00 00 00
       0.0 0.0 0.0 0.0

convs.convs.0.lin.weight f4 [64, 384]
000000 e0 88 2a 3d 3e 76 bc bd c0 43 b6 3d a3 0f 0b bd
       0.04163444 -0.092022404 0.08899641 -0.03395046
000010 4d 87 e1 bd a4 ec cc 3c 9f ec 01 3d 7e e6 8d 3c
       -0.11012135 0.025015183 0.0317198 0.017321821
000020 a7 4f 4e bd 1c f8 d1 bd 20 33 9e 3d 63 96 5d bc
       -0.05036893 -0.10252401 0.07724595 -0.0135246245
000030 e3 f3 9b 3d d8 01 34 bd d1 97 49 3c a1 8e 90 3d
       0.07614877 -0.04394707 0.012304262 0.07058454
000040 f1 b6 ac 3d fe 42 4a bd 8c 47 e5 3d 9b 9a ce 3d
       0.08433331 -0.049380295 0.11195287 0.100880824
000050 17 38 95 3d 64 99 12 3c 01 51 8c 3d b9 f5 89 3d
       0.07286089 0.008947704 0.06851388 0.06736321
000060 e1 67 8f bd d7 80 30 3d 4b d3 ec 3d 51 47 d5 bc
       -0.07002235 0.04309162 0.115637384 -0.026034983
000070 c3 dc 03 bd 88 32 46 3d f5 f2 5e 38 59 e8 96 3d
       -0.032192957 0.048388034 5.3155196e-05 0.073685355
000080 9d b4 d1 3d c4 5c f7 3c 16 31 b9 3d 0a 45 0a bd
       0.102395274 0.030195601 0.090425655 -0.033757247
000090 8a c8 32 3d f7 2b 79 3d 08 3e 79 3d 30 53 ce bd
       0.04364828 0.060832944 0.060850173 -0.100744605
0000a0 c0 91 53 3d 9b 91 9d bd 24 5e 12 bc ce 82 79 3d
       0.05165267 -0.07693788 -0.008933578 0.06091576
0000b0 e3 f4 25 bd f3 e8 e6 bc c2 7b 33 3d ff 72 db 3b
       -0.040516745 -0.02818725 0.043819197 0.006697058
0000c0 1d 05 76 bd c9 2e 6a 3b 9e 99 98 bc 25 c9 12 bd
       -0.06006347 0.0035733453 -0.018627938 -0.035836358
0000d0 89 62 b5 bd e8 92 81 3d cd 44 c8 3d 77 d1 64 3d
       -0.08856685 0.06326848 0.09778748 0.055863824
0000e0 9e f2 f3 3b 0f 94 80 3d 9b d3 cd bd 4a 17 04 3c
       0.0074446937 0.0627824 -0.10050126 0.008062193
0000f0 7f 7a 78 bd df b2 bc bd ce 8c 3c bd d1 19 03 bd
       -0.060663696 -0.092138045 -0.04603272 -0.032007042
000100 20 40 d9 bd 89 e3 e3 bd 5a 19 15 3d 48 c9 14 bd
       -0.10607934 -0.11127383 0.03640113 -0.03632477
000110 bf d8 79 bc 27 db 9a bc fc 5a 73 3d 17 b1 87 bd
       -0.01524943 -0.018903328 0.05941294 -0.06625574
000120 2f a9 09 3d d0 b8 c7 3d dd 22 27 bd c9 8c fd bc
       0.03360861 0.09752047 -0.040804733 -0.03095092
000130 9e 69 82 bd 8c 59 8a bd 56 6c 61 3c ae 52 38 bd
       -0.06367801 -0.06755361 0.013758739 -0.045000724
000140 98 80 cf 3d c0 8b ad 3d 61 0f f9 bb 82 e8 ec bd
       0.10131949 0.08473921 -0.0076007103 -0.11567785
000150 4c b1 1c bc f9 61 bd 3d 45 cb 86 3d 6b 1f 07 bb
       -0.009563755 0.092472024 0.06581739 -0.0020618092
000160 81 28 c0 3d ba 78 cc bd 60 33 0d 3d 1b c4 09 3d
       0.093827255 -0.09983964 0.034472823 0.033634286
000170 23 73 05 3d d4 02 e7 3d 0d d8 de bc 4a 09 bf bb
       0.032580506 0.11279836 -0.02720263 -0.0058299648
000180 76 54 92 bd 23 67 bf 3d dd 37 9a bc cd 4a e6 bd
       -0.07145016 0.09345844 -0.018825466 -0.11244736
000190 a6 7e 2e bc 05 34 6d bd 2c 43 c6 3d 1a 11 d6 bd
       -0.0106503125 -0.057910938 0.09680781 -0.104524806
0001a0 9d 8b a9 bd 4f 97 b5 3c d0 8f a1 bd 81 a8 87 bd
       -0.08278582 0.022166876 -0.07888758 -0.066239364
0001b0 05 b0 c2 3d f6 0c 61 3d 93 3c b0 3d 1f eb ab bd
       0.09506229 0.054944 0.086053036 -0.08394455
0001c0 da e3 c7 3d 35 ae f7 3c e2 03 67 3d d3 d3 ae bc
       0.09760256 0.030234436 0.056400187 -0.02134124
0001d0 ca 88 ac 3d c4 be ae bd b1 3e 96 bd 7c 1f eb 3d
       0.08424528 -0.085324794 -0.07336176 0.114806145
0001e0 b6 66 90 bd 27 1d b2 3d 80 a8 82 bd 63 f8 ad bd
       -0.070508406 0.086969666 -0.06379795 -0.08494642
0001f0 b3 90 13 bb 81 5b 9f bd 79 57 64 3d 7b 4b d5 3c
       -0.0022516667 -0.07781125 0.055747483 0.026036968
000200 56 6d a4 39 9d 0f 4b bd a0 bc 43 3c 90 08 df 3d
       0.0003136198 -0.049575437 0.011946827 0.10890305
000210 de 30 ed bc 68 89 16 bd 49 0e 63 3c f6 72 e7 bd
       -0.028953966 -0.036752135 0.013858386 -0.11301224
000220 c1 5d b8 3d af 9f 96 3d e2 ac 4a bd f9 99 bc 3d
       0.09002257 0.07354676 -0.04948128 0.092090555
000230 33 17 d0 bd e0 e2 e7 bd ce a5 fb bb 3b 19 ed bb
       -0.10160675 -0.1132257 -0.0076796776 -0.0072356737
000240 98 e6 c6 bd 48 ee 87 3c 1d 4a 01 bd 18 15 09 3c
       -0.09711951 0.016593114 -0.03156482 0.008366846
000250 4a 47 08 bd 6b 5a 99 3d 11 4c 9e 3d 8d 71 c2 3d
       -0.03327111 0.07487949 0.07729352 0.09494314
000260 d1 5e 0e bd 87 25 9c 3c 65 44 9f 3d 26 c5 06 bd
       -0.034758393 0.019060863 0.07776717 -0.03290286
000270 3c f0 d1 3d 94 59 a4 3d 92 ef 8e bd e3 92 af 3c
       0.10250899 0.08024898 -0.06979288 0.021432346
000280 26 58 9d bd 5c a1 ac bc 93 24 bf 3c c5 4a c5 bd
       -0.076828286 -0.021073036 0.02333287 -0.09633402
000290 3c 52 c9 bd 8b c1 28 bd 59 ba 87 bd 6c c5 11 3d
       -0.09830138 -0.041200202 -0.0662734 0.035588667
0002a0 dd 7b 4f bc 7f 1b 39 bd e7 1d ab 3d 48 98 ae bc
       -0.012663809 -0.045192238 0.08355313 -0.021312848
0002b0 75 df e7 3d 84 8a 9a 3d 4f 87 a5 bd 5c cb 9a bd
       0.11321918 0.07545951 -0.08082449 -0.07558319
0002c0 3b 1f 5d bd 86 ca 8e bd 45 aa 7a 3d 3f a9 b9 bd
       -0.05398486 -0.06972222 0.061197538 -0.09065484
0002d0 02 d5 d3 3d 98 52 8e 3d 64 ca 0f bd fd 86 8a 3c
       0.103433624 0.06949347 -0.035105124 0.01691007
0002e0 9e 8b ca 3d 29 6c 51 bb a7 c7 fe 3c b4 f3 26 bd
       0.09889911 -0.0031955338 0.031101061 -0.040759757
0002f0 d1 65 97 bd 4a 29 d8 bd 80 61 d3 bd ba 37 e8 3d
       -0.07392467 -0.1055475 -0.10321331 0.11338754
000300 fc 40 bf 3d d9 f3 87 bd 64 ca 93 bd 6f 0b c2 3d
       0.09338567 -0.06638307 -0.07216337 0.09474837
000310 c2 4b 88 bd 55 27 23 3d 68 ba d1 3d af 36 a0 bd
       -0.06655075 0.03983243 0.10240632 -0.0782293
000320 f8 1d b5 3d 8f 4f 3d bc b2 42 29 3d b7 cd bd bd
       0.08843607 -0.011554613 0.04132337 -0.092677526
000330 51 c5 e5 3d 2f 80 52 bd 65 ba 5d 3d fe c7 96 bd
       0.11219276 -0.051391777 0.054132838 -0.07362364
000340 cb b9 a3 bd 51 88 98 bd c9 07 d8 3d 9a be 07 3c
       -0.079944216 -0.07447875 0.1054836 0.008285189
000350 f0 af b7 bd 74 9e 8a 3d 28 b7 d8 bd 42 ba b3 3d
       -0.08969104 0.06768504 -0.10581809 0.0877576
000360 ec b8 e2 3d 06 20 73 3d ac 8d b8 3c 3a 46 d2 bd
       0.11070427 0.05935671 0.022528492 -0.10267301
000370 34 40 6a bc 41 5f ec bd 03 71 a0 3d 7e 70 ea bd
       -0.014297534 -0.11541606 0.07834055 -0.114472374
000380 57 cd c5 3d 0f 67 c7 3c a8 2a d2 3d 26 25 8c bb
       0.09658306 0.024341134 0.10262042 -0.0042768894
000390 38 b9 cd 3c ad 3c d7 bd d3 6e a3 bd 28 7f 84 3c
       0.025112733 -0.1050962 -0.079801224 0.016173914
0003a0 89 e1 b9 bb e3 cb bb 3d 4d 4b e3 bd 1b 12 73 bc
       -0.005672638 0.09169748 -0.11098347 -0.01483586
0003b0 f1 db d4 bd 49 b6 8a bd 95 a6 b4 3d 8c bb af 3d
       -0.10393513 -0.067730494 0.088208355 0.085806936
0003c0 15 b9 89 3d e9 ee 53 bc c7 5d 29 bb 67 27 ac bd
       0.06724755 -0.012935379 -0.002584325 -0.08405953
0003d0 20 d8 dc 3d 33 f4 3e bd 60 fd 83 bd 69 a0 ec bd
       0.1078341 -0.046619605 -0.06444812 -0.11554033
0003e0 93 c0 34 bd 1c 3b af 3b 4d 09 a9 bd 42 a4 0f bd
       -0.044128966 0.0053476226 -0.08253727 -0.035068758
0003f0 59 9a 45 3d 17 7a 60 bd e9 6c aa 3d e1 4f c3 3d
       0.0482429 -0.054803934 0.08321554 0.0953672

mlp.0.weight f4 [32, 64]
000000 10 9d 01 bd 20 d2 77 bd 40 bb ad 3c 6e 1a bb bd
       -0.031643927 -0.060503125 0.021207452 -0.091359004
000010 16 30 b3 bd 38 94 50 3d f8 8b e7 bd 88 68 f1 3c
       -0.08749406 0.050922602 -0.11305994 0.02946879
000020 3c 0b 7b bd ac cc a6 3d 90 2c 27 bd 34 3e 48 bd
       -0.06129001 0.08144507 -0.040813982 -0.048887447
000030 60 48 ce bd 6c 15 fd bd 78 31 84 bd 80 52 e9 bb
       -0.10072398 -0.123576015 -0.06454748 -0.0071204305
000040 54 5c 36 3d 9a cf af bd 60 c5 67 bd 28 42 51 3d
       0.044521645 -0.08584519 -0.056584716 0.051088482
000050 d8 00 f6 3d 00 fd c3 bb 8c 8c fe bd e0 fa 30 3c
       0.1201188 -0.0059810877 -0.12429151 0.010802001
000060 1c 15 e2 3d 5e 97 8a bd ee a9 df 3d 7a 6b b8 bd
       0.110391825 -0.06767152 0.109210834 -0.090048745
000070 40 79 43 bb 80 f4 06 3b 8c 6b 1c 3d ba 22 b9 3d
       -0.002982691 0.002059251 0.038188502 0.09039827
000080 68 b1 be 3d bc 2d 83 bd d6 95 cb 3d e0 f0 e1 3c
       0.09311181 -0.064052075 0.09940688 0.027580678
000090 c8 bf 44 3d e4 ba 11 bd d8 53 a3 3d 4c d9 f3 3d
       0.04803446 -0.035578623 0.07974976 0.119066805
0000a0 14 98 df 3d 3e 0f b1 3d 00 8e b1 ba 00 74 4a b9
       0.109176785 0.08645485 -0.0013546348 -0.00019307435
0000b0 40 8b 6b 3d 1e ce cc bd 2a 8b ca 3d 22 e9 ed 3d
       0.057505846 -0.10000251 0.09889825 0.11616732
0000c0 60 e6 6f 3d 68 80 b6 3d 18 f5 41 bd a6 c9 9e 3d
       0.058569312 0.0891121 -0.04735288 0.07753305
0000d0 e2 ad 82 3d 4c 3a b2 3d c0 a2 75 3b 7e 60 c4 3d
       0.06380822 0.087025255 0.003748104 0.09588717
0000e0 f2 84 b2 bd 0c 3e 48 bd 96 fa b9 bd c8 46 15 3d
       -0.087167636 -0.048887298 -0.090809986 0.036444455
0000f0 48 f5 ed 3d 14 42 a9 bd 90 cd 23 3c d0 6a 28 bd
       0.11619049 -0.082645565 0.00999774 -0.04111749
000100 7c c8 33 3d 1c 05 7e bd c2 b0 88 3d cc d2 d5 3d
       0.04389237 -0.06201659 0.06674339 0.10440597
000110 78 25 68 3d f2 f7 bc 3d 46 0a c0 3d c6 23 92 3d
       0.056676358 0.09226979 0.093769595 0.071357295
000120 0c 78 d8 bd 78 30 34 3d bc 66 8f 3d 00 4e da b9
       -0.10569772 0.043991536 0.07002017 -0.00041638315
000130 28 33 d6 3c 78 05 c8 3c 08 74 a7 3d ee 42 95 3d
       0.02614744 0.02441667 0.08176428 0.072881564
000140 9e 3a f5 bd e0 7e 01 3c c8 ee 45 bd 20 97 ad 3b
       -0.11974071 0.0079037845 -0.048323423 0.0052975565
000150 c0 32 4e bb 68 9d 09 bd 1e 97 c4 3d 72 50 f8 bd
       -0.0031463355 -0.03359738 0.09599136 -0.12124719
000160 24 b9 d4 bd de 9a cd bd 3e c9 df bd 9e 3d b3 bd
       -0.10386875 -0.10039304 -0.10927056 -0.08751987
000170 b8 b0 97 bc 14 a8 71 bd 14 4f 1d bd c4 83 ed bd
       -0.018516883 -0.058998182 -0.038405493 -0.11597398
000180 b2 12 c2 3d aa 2c b7 bd cc fa 4f bd 50 e9 b7 bd
       0.09476222 -0.08944066 -0.050776288 -0.08980048
000190 44 f1 a1 3d d0 dd ee 3d 60 f1 da bb fe d8 90 bd
       0.07907346 0.11663401 -0.006681606 -0.07072638
0001a0 50 12 96 bc 80 41 1b 3c 98 3e 11 3d 0a a5 9b 3d
       -0.018319279 0.009476066 0.035460085 0.07599838
0001b0 f6 4f 84 3d da db d6 3d 60 2d 41 bd 90 7a 05 3c
       0.06460564 0.10491152 -0.047162414 0.008146897
0001c0 0e 3d ed bd 4a e5 e9 3d 24 38 03 3d f6 c6 bb bd
       -0.11583911 0.114206865 0.03203596 -0.09168808
0001d0 fe 87 93 3d 68 0f 38 bd f6 68 a2 3d 1c 59 02 bd
       0.07203673 -0.044936568 0.07930176 -0.031823263
0001e0 30 8e e8 3d e8 2c f5 bc 88 16 ba bc d0 ee 44 3d
       0.11355245 -0.02992864 -0.022715822 0.04807931
0001f0 08 79 a4 3c 1e 38 ff 3d 2c 7a 1c 3d 10 51 52 bc
       0.020077243 0.124618754 0.03820245 -0.01283671
000200 90 af 2b bd a4 7a 05 bd ba fb 9c bd 70 80 70 bc
       -0.041915476 -0.032587662 -0.076652005 -0.014679059
000210 00 6a e6 3d b0 b9 1f bd 04 1c fb 3d d4 80 9c 3d
       0.11250687 -0.038995445 0.12261203 0.076417595
000220 48 2d d2 3c 98 56 e7 3c e8 1d 27 bd 54 e1 7a bd
       0.025656357 0.028239533 -0.040800005 -0.061250046
000230 00 60 3f 3c 88 aa f2 3c 80 0c 9a bc 84 20 38 bd
       0.011680603 0.029622331 -0.018804789 -0.044952884
000240 30 69 ee bc 10 d9 34 3d 38 8f 26 bd 8c 88 98 bd
       -0.029102892 0.04415232 -0.040663928 -0.07447919
000250 00 6e 98 bb 70 02 8c bd a8 e5 2f bd 20 d9 d7 bc
       -0.004651785 -0.068364024 -0.042943627 -0.02634865
000260 66 6f 8f bd 18 1c d1 bc 18 b6 9e 3c c0 e5 63 3d
       -0.070036694 -0.025526091 0.019373938 0.05563903
000270 14 7a 74 3d f0 1f 01 bd 2c f3 6d bd 62 0d ff 3d
       0.059686735 -0.0315246 -0.058093235 0.124537244
000280 36 6c 93 3d 1c 72 2a bd d0 55 d8 bd e4 4c 91 bd
       0.07198374 -0.04161273 -0.105632424 -0.07094744
000290 1a ae b3 3d 18 63 b7 3c 80 2f ac 3b b8 73 71 3d
       0.087734416 0.022386119 0.005254686 0.05894825
0002a0 f0 de 64 bc 7e 32 be 3d 0c 56 b8 bd 4e 6e 86 bd
       -0.013969168 0.09286974 -0.09000787 -0.06564008
0002b0 84 73 ec 3d d0 a8 ab 3d 58 f2 39 bd 20 bb 8b bd
       0.1154547 0.08381808 -0.045397133 -0.06822801
0002c0 0c ba 89 bd 40 b8 3a 3c 4c 3c 5f bd 58 c2 b7 bd
       -0.06724939 0.011396468 -0.054500863 -0.08972615
0002d0 48 35 82 3d 20 b9 96 bc 4c 24 6e 3d 90 27 63 bc
       0.06357819 -0.018398821 0.058140084 -0.013864413
0002e0 36 e3 e1 bd 00 f9 56 3b 3e 16 a8 bd 7a 62 cb bd
       -0.11029665 0.0032802224 -0.08207367 -0.09930892
0002f0 60 43 d5 bd a2 14 fa bd 14 19 39 bd 60 8d 15 3c
       -0.104132414 -0.12210967 -0.045189932 0.009127945
000300 c6 3a fc 3d c0 d4 05 bc aa 06 ea 3d 48 7d 2b bd
       0.12315898 -0.008168399 0.11427052 -0.041867524
000310 b4 7a 96 3d 54 09 92 bd 70 45 c6 bd 24 5b b5 bd
       0.073476225 -0.071306854 -0.09681213 -0.08855274
000320 a4 d4 8c 3d 80 60 e7 ba 0a d5 b2 bd 88 73 63 bd
       0.068764955 -0.0017652661 -0.0873204 -0.0555301
000330 c0 55 25 bd ee 39 cb bd f8 29 e2 3d 10 ed ef 3d
       -0.04036498 -0.099231586 0.11043161 0.11715138
000340 12 ac c4 3d 04 23 c2 3d 52 e8 aa bd b0 1f d2 bd
       0.09603132 0.09479335 -0.08345093 -0.1025995
000350 5c 54 46 bd 4c cc 60 3d 9a 05 c5 3d 9a 1a b7 3d
       -0.048420295 0.054882333 0.09620209 0.08940621
000360 f0 2e a2 3d bc 7c ab 3d 00 5a 9a bd a0 ba 86 3b
       0.07919109 0.083734006 -0.075366974 0.004111603
000370 f8 3a 4e 3d 70 f6 e2 3d ec 2b 56 bd e2 28 e9 bd
       0.050349206 0.110821605 -0.05228798 -0.11384751
000380 18 60 e2 3d 60 36 e3 bd 68 25 e5 3c 30 23 16 bc
       0.11053485 -0.110943556 0.027971938 -0.009163663
000390 78 66 ec bd 70 fd 8b 3c d0 c9 fb 3c cc 4f 97 bd
       -0.11542982 0.017088622 0.03073588 -0.07388267
0003a0 40 56 10 3c 00 e4 02 3a 20 26 47 3c 80 3c 89 3c
       0.008809626 0.0004993081 0.012155086 0.016752481
0003b0 98 68 bd 3d 68 ca e3 3c 22 8f a1 bd d8 da ca 3c
       0.09248465 0.027806476 -0.078886285 0.024762556
0003c0 ea 25 8d 3d 38 14 ec 3c 80 71 cd 3c 5e 7e 90 bd
       0.06891997 0.028818235 0.025078535 -0.07055353
0003d0 74 41 fa 3d d8 b3 72 3d 4c 06 75 3d 0e bd 91 bd
       0.122195154 0.059253544 0.05982046 -0.071161374
0003e0 f8 64 e5 bc ec f9 0a bd 00 96 25 bb 20 5d cf bc
       -0.028002247 -0.03392975 -0.002526641 -0.02531296
0003f0 64 21 e2 bd 90 70 6c bc d8 d7 fe 3c 94 f5 53 bd
       -0.11041525 -0.014431134 0.031108782 -0.051747873

mlp.0.bias f4 [32]
000000 78 80 d9 3c d8 26 3e 3d e0 ac c5 3c 1c 7b 85 bd
       0.026550516 0.046423763 0.024130285 -0.06517622
000010 72 7b e3 bd ba ed 9d 3d 30 4c f1 bc 82 f3 fd 3d
       -0.1110753 0.07711358 -0.029455274 0.12399961
000020 e2 6d ee bd fc 5e ea 3d d8 59 87 bc 60 13 b7 3c
       -0.11642052 0.11443898 -0.016522333 0.022348106
000030 e8 48 27 bd 28 b6 b5 bd 58 31 47 3d b4 b2 f6 bd
       -0.040841013 -0.08872634 0.048631042 -0.12045804
000040 50 ba 0d 3c 2c 05 b2 3d 40 26 02 bc 34 07 58 bd
       0.008650377 0.08692393 -0.00794369 -0.052741244
000050 4a b6 bc bd bc fe 43 bd ee 2d 98 3d e8 57 f6 bd
       -0.092144564 -0.047850356 0.074306354 -0.120284855
000060 28 52 10 bd a0 c2 02 3c f0 42 dc bd 42 c3 8f bd
       -0.0352346 0.0079809725 -0.10754955 -0.07019664
000070 70 45 bf bd fa e0 df bd 48 af f9 bc 72 5b c7 3d
       -0.09339416 -0.10931583 -0.030479088 0.09734239

mlp.3.weight f4 [2, 32]
000000 44 f8 1f 3d ec 1c 96 3d 65 14 8f 3c 70 69 8d bc
       0.039055124 0.07329735 0.01746578 -0.01726219
000010 5c 10 af 3d 1a a6 15 be 8a c2 2f 3e 82 d1 51 3c
       0.08548042 -0.14614144 0.17164055 0.012806298
000020 bb bb c5 3d ee b3 b4 3d be a7 88 bd 16 6f 56 3c
       0.09654947 0.08823381 -0.06672619 0.013088008
000030 69 2b ca bd 67 5a 9d bd 67 65 07 3d 7d c2 80 3d
       -0.09871561 -0.076832585 0.03305569 0.06287096
000040 5c 16 f9 3b 52 2b 06 3e 3c dc 0c 3e 1d f6 75 bd
       0.0076015424 0.13102463 0.13755888 -0.060049165
000050 97 21 30 bd 26 91 06 be 59 6e 16 3e e1 6e 23 be
       -0.043000784 -0.13141307 0.14690532 -0.15960266
000060 81 a3 fb 3c 48 27 19 3d 62 bd 2f bd 51 06 64 bd
       0.030717613 0.037390977 -0.04290522 -0.055670086
000070 24 c3 a6 bd 03 9f a0 bc 1b 50 9b bd 1e b9 24 3e
       -0.08142689 -0.019607073 -0.07583638 0.16086242
000080 92 b1 6c bc 50 ec d3 3d 2a a2 04 be 48 21 01 be
       -0.014446633 0.103478074 -0.12952486 -0.12610352
000090 a2 cc fa bc 4e ae ed bd 34 b0 5f 3d ad 05 ba bd
       -0.030615155 -0.116055116 0.0546114 -0.09083114
0000a0 dc 79 10 be 20 d3 af 3d 12 6b ea 3d f0 74 13 3e
       -0.14108986 0.08585191 0.11446203 0.14400077
0000b0 e3 36 0b bc 5d 7c 0e be ff cc 28 be d5 5f 68 3b
       -0.008496973 -0.13914628 -0.1648445 0.003545751
0000c0 f4 0d 0d 3d b9 6b 13 be f2 96 8f 3c 33 3b 52 bd
       0.034437135 -0.14396562 0.017528031 -0.051325988
0000d0 12 bb 0f 3e d5 da 05 3e 26 89 17 be fc 19 7d 3d
       0.14036205 0.13071759 -0.14798412 0.06179236
0000e0 2f 78 7d bd 75 29 dc bd 4e 80 c8 3c 14 35 df 3c
       -0.061882194 -0.10750095 0.024475243 0.02724699
0000f0 e7 08 d3 bc 22 51 99 bd b9 95 3f bc cb 3f c4 bd
       -0.02576108 -0.07486178 -0.0116934115 -0.0958248

mlp.3.bias f4 [2]
000000 e9 87 86 bd f3 4c cd 3c
       -0.065688916 0.025061106
